2d_navigation/imitation_learning/data_and_model/best.pt (torch_old, 257972 bytes, 6 tensors)

model.0.weight f4 [200, 18]
00000000: 422d c03d ae5b 39be 5bfb 643e 18d7 a9be
00000010: ef76 37be b316 583e 66dc a9bd a6c9 76be
00000020: 66b5 cdbc c0bf 4f3d cd9d 5ebc 69fe 0e3e
00000030: 5d82 0b3d 1485 edbb b701 0abe 8763 6c3c
00000040: e860 193d c000 b9bd 1c76 653f 46b2 cc3c
00000050: d16b 593d 6bc1 ba3e 3c51 7c3f d6c9 b13e
00000060: 2acf 29bd 927c 683d ef35 4bbd db2a dc3d
00000070: b11c 3a3c e506 10be 6dcf ebbe 1b0e 9a3d
00000080: ceb2 3bbb f020 e0bc b404 a13c eaee 7dbc
00000090: 8428 71bf e6b6 9e3f 4443 063d cd8a 71bd
000000a0: b9a0 853d 0878 12be e4c1 8d3c cfc4 d53d
000000b0: 67ae 64bd 960c 323d 3831 eebd 27e4 25bd
000000c0: 4d9b 10bc 0e70 07bd 7ee6 443e 08df dfbb
000000d0: ebd5 c03c 9549 1d3d 5080 b8be 23dc a4bf
000000e0: 658d 22be 0269 6ebe ce52 80be 3371 cabc
000000f0: 0dd6 943a b473 2ebb 4828 76bd 350e 66bc
00000100: 704c 353c e117 60bd f494 a0bd 346a f6bb
00000110: e13e 61be e9c2 2bbe 183e d8bd f98b 8abd
00000120: 7277 d2bd 7be5 afbd 5623 e4be 4275 a23e
00000130: 8454 893e 9786 0abd 6a3d afbc 40fa 34bd
00000140: 7b7b 2b3d 0018 8e3e b281 fa3d 0fc5 7abe
00000150: 358f 65be ee35 b23d 17bc e13d a274 793d
00000160: cb7e 10bd e264 92bd 2d6f 72be 2865 bf3f
00000170: 8109 0cbe 8dc8 a0bd c0df 1abf 65bf cbbe
00000180: f6c2 993d 45e7 caba d193 49bd bb21 4f3d
00000190: 40f6 7cb9 9af5 71bc d111 433b 34f4 33bc
000001a0: a07e b4bc 0975 343c e895 8ab9 6cfa 61bc
000001b0: 22f7 b3bf 7656 d33e 4e95 49bd 3de7 213c
000001c0: 22f0 c8bc 1167 15bd 617d 7e3e aac6 1dbe
000001d0: 962e aa3c f101 3fbe 1031 33bd 7070 b63d
000001e0: 8ca7 d4bd cf9f 23bf 0256 c03c 0af2 963b
000001f0: 6d82 6c3d a324 e2bc 01b4 25be f304 913e
00000200: fda7 803d 31ea 173c 01b1 80bd ceba 383e
00000210: 73d2 2abf edf1 363e 800a 023e 8c05 b239
00000220: 6021 173e 2c03 d73c 1ea4 6abd 7fdd d13e
00000230: c835 0fbf 895f 233e 96a6 95bd a53b 7d3d
00000240: 1412 4abf a814 9e3f 9e2c bdbd f042 db3e
00000250: 1a2c 063f 91c6 e73c c05f cd3c 8fb5 64bc
00000260: cb76 293b e6f8 de3c 8c11 1ebd 7ad0 22bd
00000270: 33b5 4ebd dd9d 7cbd ef7c 0c3c 47af 82bd
00000280: df68 92bd 2186 a7bd 376c 973e 540e 8bbe
00000290: 3fc1 e83e 1fd9 fb3d 6a3e 863c 86be 8a3d
000002a0: 3093 03bc 0660 b4bb 7b25 853e 163e e2bd
000002b0: ca7c 9fbd 41c8 273d 72ad 193e 2d72 46bd
000002c0: 2f15 1bbe 8f7d c5bd 2dec fbbd f091 acbd
000002d0: 98e7 b4bd 839b 333c 8b91 1cbc a4b5 50bd
000002e0: 0e45 623d a028 753f 2679 7e3d eeb8 a63d
000002f0: be74 27be 3942 10bd 170d 533d 79ae 33bd
00000300: 7faf a73e c81a a3be 82d2 62bd 3460 dd3c
00000310: 75cd 0b3d 9629 b9bc 0b2a 93be 3e69 493f
00000320: fdcf 863e 31c6 9b3d 17b9 3a3d eb8b 0c3e
00000330: 4c0e 45bf 4300 01bd b075 113d eb79 4fbd
00000340: 5c8f e9bc 8825 a9bc 4477 1cbc 887b a3be
00000350: 1c07 69be b86a ca3d 0f94 193e cc5b 8e3e
00000360: 27c3 113d 91ae 573c 2cc4 c6bc d80a b83d
00000370: e4ea 893f 97d0 c9bf dfcb de3d 2663 c03c
00000380: 7791 e43c 5c53 b2bb 956a a4bc b091 183d
00000390: 4af9 21bd 4af5 dd3c 372d b1bc 1d84 e739
000003a0: 34e4 4fbb 735b 7cbd 3eb9 91be 11bf 143e
000003b0: a795 c83b eb5a f83c 16c5 4c3e ad70 293e
000003c0: 9fe6 fbbb 2bb3 d63d 3837 ac3d dab2 553d
000003d0: 09b9 c63d 3df2 19bf d33c 0e3e 8e12 89bd
000003e0: adda 52bd 959d cabd d00e ac3d 185a ed3d
000003f0: 474c 953d 2535 2e3a 31ba cebd 595a 96be
0.09383632 -0.1810138 0.2236151 -0.33171916 -0.17916463 0.21102409 -0.08293991 -0.2410036
-0.025110912 0.050719976 -0.013587427 0.13964237 0.03405987 -0.00724853 -0.13477217 0.014428026
0.037445933 -0.09033346 0.89633346 0.024987351 0.053081337 0.3647569 0.98561454 0.347243
-0.041457333 0.056759425 -0.049611982 0.107503615 0.01135938 -0.1406513 -0.4605669 0.07522222
-0.0028640511 -0.027359456 0.019655563 -0.015498856 -0.94202447 1.2399566 0.032778993 -0.05897026
0.06524796 -0.14303601 0.017304368 0.10437929 -0.055830386 0.043469034 -0.116304815 -0.040500786
-0.008826089 -0.033065848 0.19228551 -0.0068320073 0.023539504 0.03840025 -0.36035395 -1.287968
-0.1587425 -0.23282245 -0.25063175 -0.02471218 0.0011355296 -0.0026619257 -0.06009701 -0.014041473
0.011065587 -0.054710273 -0.078409106 -0.0075199846 -0.21996643 -0.16773571 -0.105587184 -0.06764979
-0.10276689 -0.08588692 -0.4455821 0.31730086 0.26822293 -0.03381976 -0.02139159 -0.04418397
0.041865807 0.27752686 0.12231769 -0.24489234 -0.2241791 0.087016925 0.110222034 0.060902245
-0.03527717 -0.07148148 -0.23675223 1.4952745 -0.136755 -0.07850752 -0.60497665 -0.3979446
0.07507889 -0.0015480301 -0.049213234 0.050569277 -0.00024124328 -0.014768029 0.0029765258 -0.0109835155
-0.022033036 0.0110142315 -0.000264331 -0.013792615 -1.4059794 0.41276902 -0.049214654 0.009881792
-0.024528567 -0.036475245 0.24852516 -0.15407816 0.020774167 -0.18653084 -0.04374796 0.089081645
-0.103835195 -0.63915724 0.023478512 0.00460649 0.05774157 -0.02760536 -0.16181947 0.28324088
0.06282041 0.009272144 -0.06283761 0.1804001 -0.6672737 0.17865725 0.12699318 0.00033954938
0.14758825 0.02624663 -0.05728542 0.409893 -0.5594144 0.15954413 -0.07307164 0.06182446
-0.78933835 1.2350054 -0.09237026 0.42824507 0.52411044 0.028292926 0.025070071 -0.013959303
0.002585816 0.027218293 -0.038590953 -0.0397496 -0.050465774 -0.061673988 0.008574708 -0.06381088
-0.07148909 -0.0817988 0.2957475 -0.2715937 0.45459935 0.12297272 0.016387183 0.06774621
-0.008030698 -0.005504611 0.26005158 -0.11046998 -0.077874735 0.04096246 0.1500757 -0.04844873
-0.151448 -0.09643089 -0.12300906 -0.08426273 -0.088332355 0.01096237 -0.0095561845 -0.050954476
0.055241637 0.95765114 0.062127255 0.08140741 -0.16353127 -0.035219405 0.051526155 -0.043867562
0.3275108 -0.3185637 -0.055376537 0.027023412 0.034131486 -0.022602838 -0.28743014 0.7867621
0.26330557 0.076061614 0.04558667 0.1372525 -0.7697494 -0.03149439 0.035512626 -0.05065338
-0.028510742 -0.02064778 -0.0095499195 -0.31930184 -0.22756618 0.09883636 0.14997886 0.2780441
0.035586502 0.0131641785 -0.024263464 0.08986443 1.0774808 -1.5766782 0.10878729 0.023484778
0.027901394 -0.005442066 -0.020070354 0.037248313 -0.03954438 0.027094502 -0.021628005 0.00044158185
-0.0031721713 -0.06161065 -0.2846164 0.14526011 0.0061213556 0.03031679 0.19997057 0.16546889
-0.0076874043 0.10483392 0.0840897 0.05217252 0.097032614 -0.6013525 0.1389039 -0.06692992
-0.051478077 -0.09893338 0.08401263 0.1158945 0.072899394 0.00066454924 -0.10094107 -0.29365805

model.0.bias f4 [200]
00000000: 224a 17bd be42 dabe 2928 6dbd 7fdc 84bf
00000010: 5a9b 3bbe c492 7fbf 3b0d 3cbf da97 32bf
00000020: 64fe c2be a112 8fbd 9ff8 1bbf 0a7e 04bf
00000030: e9df 12bf 1e05 37bd 9a11 83be 7298 8fbe
00000040: 6920 9abf 7274 9dbf cba6 69bf 3cd1 04bf
00000050: 882d f8be 4085 a13e 5c7a c6bd a073 1cbf
00000060: 4610 a6be 56bd 873f 1cc7 59bf 1af5 3dbf
00000070: 8881 1ebf b7ea 92bf 792f 91be 1112 69bf
00000080: 89a2 8bbe 0c1a f3be 9bd8 06be a75e fbbd
00000090: de7b 8b3e ae8f e7bf a8ef 01c0 0d28 97bd
000000a0: f5ad dbbe 76a0 24bd dc48 9ebe 8930 e33e
000000b0: 69a1 b0be 3fba 43bf 657d 0fbf 4156 97bf
000000c0: c631 19bf 3adf a9bf a7ce 17bf 6a39 d03f
000000d0: 7f47 c1bc 240c 09bf fcaf 46bf 2e26 5abf
000000e0: b521 58bf 3ca4 40bf f591 22bf 9f13 b7bf
000000f0: f715 a3bd abbd 61bf d48a 8ebf 5f07 3ebf
00000100: 999d 0bbf 6dab 26bf f2ab e2be c64e 8dbf
00000110: ecc9 46bf 16c1 4abf 2ad6 c7be 8a30 0abf
00000120: ca56 eabd 40cd babe 051e 47be 10cf adbb
00000130: f55a 1bbf 8023 acbe e444 54be d85d 8f3c
00000140: ea0c 64be cc02 a2be 2fae 12bf 0f8e 8d3e
00000150: 010e 90be 2938 8ebf 0099 dbbe 7c6b 3ebf
00000160: 7f7e 3dbf 7e0f a4bf df8b 8abf 63f1 2ebf
00000170: 69dd 12c0 afd3 62bf 6048 34be a0f0 98bf
00000180: 43c7 cabf 8029 7abf 5d71 27bf 4a63 d73e
00000190: 4700 80bf 3e31 403c 0a88 96bf 0dfa 2fbf
000001a0: 269b 8bbf 6716 25bf b33b 3bbf c71d 74bf
000001b0: 0913 81be 7fc5 27bf ab20 debe 156b 30bf
000001c0: 0de6 8ebf 4407 36bf 10a2 54bf bec9 26be
000001d0: e452 b4be 5a7e 91bf 3872 4abe 9bba b1be
000001e0: 856f bbbe 3af7 2cbf 590a 7fbe c802 f1be
000001f0: 09ee d7be 646e e1be 963d 9ebf 12d7 9dbe
00000200: 13d1 77bf ed86 83bf 2895 0bbf bb13 9dbe
00000210: 484b 7b3e e31a 903f 22cd 8fbe 8ba4 81bf
00000220: 7d28 33bf 3cd4 d13e 8302 8a3f 93e0 50be
00000230: 7f0e 79be 33f3 98be 18f6 73bc ed87 bfbe
00000240: 0a0b 9dbf c0d8 0a3e cbe5 98bf 90f6 3dbf
00000250: caa5 b2be dc22 2dbf ec6e 823e 6751 2cbe
00000260: 944f 04bc 4298 7dbf 112e 483f c14a 90bf
00000270: 45f3 47bf 62c8 5dbf 6ee1 08bf 1143 c33d
00000280: 5562 a0be 6e14 923f 69cd dfbe 371a dfbe
00000290: 7717 8cbf d493 473f 5ee1 2e3c d222 983e
000002a0: 34d1 d2be 721f 93bd a6f2 2fbf 93d7 c03d
000002b0: e945 e93d 5a85 f3bd 8ec8 18bf 853b 07bf
000002c0: 926e 76bf cc65 7bbf b3dc 9bbf 6492 2bbf
000002d0: 6448 b83e 8236 4ebf 0ad8 01bf d0e3 94bf
000002e0: de50 32bf f3a1 1c3f d6d6 88bf d588 22bf
000002f0: 6b57 0dbf 526f 493f d544 4fbf b56a 52bf
00000300: 7be0 0abf bf95 85bf 8638 a9be ef6c 6cbf
00000310: 3d26 38bf 715e aabf ea06 dcbe f00a ebbe
-0.036935933 -0.42629045 -0.057899628 -1.037979 -0.1832098 -0.9983332 -0.7345769 -0.6976296
-0.3808471 -0.06985975 -0.6092624 -0.5175482 -0.5737291 -0.044682615 -0.25599366 -0.28045994
-1.2041141 -1.2301161 -0.9127013 -0.51881766 -0.48472238 0.31546974 -0.09691307 -0.6111393
-0.3243429 1.0604656 -0.8506944 -0.7420212 -0.619164 -1.1477879 -0.2835653 -0.9104319
-0.27272442 -0.4748081 -0.13168566 -0.12273913 0.2724294 -1.8090723 -2.0302525 -0.07380686
-0.42906156 -0.04019209 -0.30914962 0.44372967 -0.34498146 -0.76456064 -0.5605071 -1.1823198
-0.59841573 -1.3271248 -0.592997 1.6267521 -0.023593662 -0.5353415 -0.7761228 -0.8521451
-0.8442643 -0.752506 -0.6350396 -1.4302863 -0.07963174 -0.88180035 -1.1136117 -0.7423
-0.5453735 -0.65105325 -0.4427181 -1.1039665 -0.7765186 -0.79200876 -0.39030582 -0.53980315
-0.11442335 -0.36484718 -0.19445045 -0.005304225 -0.60685664 -0.33620834 -0.20729405 0.017500803
-0.22270551 -0.3164276 -0.57297033 0.27647445 -0.28135684 -1.1110889 -0.42890167 -0.7438276
-0.7402114 -1.2817228 -1.0823935 -0.68337077 -2.2947638 -0.88604254 -0.17605734 -1.1948433
-1.584206 -0.97719574 -0.65407354 0.4206794 -1.0000085 0.01173049 -1.1760266 -0.6874092
-1.0906723 -0.6448731 -0.7313797 -0.95357937 -0.25209835 -0.6553573 -0.433843 -0.68913394
-1.1163956 -0.71104836 -0.8305979 -0.16287896 -0.3521949 -1.1366684 -0.19770133 -0.3471268
-0.3660852 -0.6756474 -0.24906291 -0.47072434 -0.42173794 -0.44029534 -1.2362545 -0.30828148
-0.96803397 -1.0275551 -0.5452447 -0.30679116 0.24540436 1.1258205 -0.2808619 -1.012834
-0.69983655 0.40982234 1.0782017 -0.20398168 -0.24321936 -0.29873046 -0.014890216 -0.3740839
-1.2268994 0.13559246 -1.1945127 -0.7420435 -0.34892112 -0.67631316 0.25475252 -0.16827928
-0.0080756135 -0.9906045 0.7819529 -1.1272813 -0.78105575 -0.86633885 -0.5346898 0.09534276
-0.3132502 1.1412485 -0.43711403 -0.43574688 -1.0944661 0.7795994 0.010673849 0.29714066
-0.41175234 -0.07183732 -0.6872963 0.094161175 0.113902874 -0.11890669 -0.5968102 -0.52825195
-0.96262467 -0.98202205 -1.2176727 -0.6702025 0.3599273 -0.8055192 -0.50720274 -1.1632023
-0.69654644 0.61184615 -1.0690563 -0.6349004 -0.55211514 0.78685486 -0.80964404 -0.8219407
-0.5424878 -1.0436324 -0.33050936 -0.9235372 -0.71933347 -1.3310071 -0.42974025 -0.45906782

model.2.weight f4 [200, 200]
00000000: 4445 1d3e cf00 433f ff19 a8be 6e48 863e
00000010: 054b a83c 3634 083e cde0 debf f1d5 063d
00000020: 0373 38be d91a 42be 925a abbe 0e5e 17be
00000030: fd02 a23d f94e ca3d 0be8 ae3e 3135 c73d
00000040: 0515 ba3e 164d d8bf 5126 a43e 8e72 babd
00000050: 0ac4 eb3c 86ef 883e 35e7 d6be d81d 2cbf
00000060: a7f8 22bf df07 8c3e 02d2 23be dfcd c33e
00000070: 2ccc 66bd 64de 0d3c 14ea c8be 1b4f 893e
00000080: 16ed 69c0 0544 bd3e 88a9 523e 2170 c4bf
00000090: f865 d4bd 8c6b e4bd 6b6a 223e 4696 5abe
000000a0: d5f8 02bf e6cd 81be b2f5 003f d1a5 903e
000000b0: 09b6 883d b095 b0bf 86ec 553d a040 acbe
000000c0: 6ab0 a9be 14d2 433f 508a a9be 4102 743c
000000d0: f948 cabe b227 bebd 717c a13e 8d0b ca3e
000000e0: 6694 bf3e 02e4 bfbe 34b6 3dbf aab5 92c0
000000f0: 3998 063e 1307 093e 9a17 18c0 67e2 0a3e
00000100: 35c6 25bf b911 fbbd baf3 b0ba 332b 24c0
00000110: d72e 163f a937 933e 5879 63be 1434 2c3e
00000120: 9baa 2e3e bb05 9d3e 7d45 1fbd 272e 4bbd
00000130: 755b 2c3e 03e7 ef3e 977f 29be b630 6abe
00000140: 3a37 5dbf 572e 40be e027 433f 7c1a 0c3e
00000150: 4065 ca3b 5fbe 67be 22ff f03e 052e 0d3e
00000160: 3d77 02bf e018 26c0 487d 9d3d e681 ffbd
00000170: e803 883d 7d1b 143f 8406 d23a dcfa 2e3e
00000180: 0a15 61be 4aad 1a3f fcab 6abf 0e6f 373e
00000190: 835b 86bf 1580 16be 3ece 5bbe 5625 afbe
000001a0: 64fd 243d 051c c8bd 96f4 e53e c842 c33e
000001b0: bab6 95bd 605c 42bf 37bd 183f b168 7f3e
000001c0: 69f3 9a3e 4b5f c33c 0bdd 09c0 07e0 8b3e
000001d0: 2f22 a9bd 7fb1 863f 6fdc 013e cc1d c2be
000001e0: 9e70 4b3f 3de5 c23b 0d47 593d 61c7 dcbe
000001f0: 0f4b 2d3f 229c 513e 6ddc eebe 0e7b 5e3e
00000200: 5889 ecbf 5e05 26be 30db 7abd 506a 4e3d
00000210: b4e9 333d ba35 3bbd 1c52 f1bd 5c89 683c
00000220: 714c 2dbc 7d79 df3d 02ff 543e 98ab 02bc
00000230: e1cc b9bc a321 aabd 2db1 1f3e 8eba 0b3e
00000240: 8d32 fc3e e8b8 003e 3d1d da3b 5124 a63e
00000250: a364 a1be 7ac4 dabe dcb9 bfbd a405 cfbd
00000260: 5123 6ebc ccd9 163e c13d 243e 5c1c babe
00000270: 0711 4dbf 4d2b dabf e3b9 6c3d 049f 17be
00000280: 898c 823d 9884 983e 18d5 1cbf bfbd e3bc
00000290: fc95 0d3e 3e49 023e b5fb 923e 3c4a 723c
000002a0: 7f52 7abe 5739 72bf 7a45 26be ef01 dcbc
000002b0: 0455 8ebd a422 893e eecd 3b3e 50ea 86bd
000002c0: 6510 27be 1a88 17bf 2dc2 823e 2d6a e43c
000002d0: ba07 6a3d a145 643d 0849 833e ae68 ddbf
000002e0: f2ef a93d f7a3 343e 1468 35bf 1e67 133e
000002f0: 4079 053f b2a2 d83e 520b 8abe ec77 cfbe
00000300: 93ce 3e3f 3e8c 84bd dd68 09be 66ba 203f
00000310: c87c 2a3e 00f1 f8bd d4f0 e33d 3220 afbc
00000320: 436b 36be 6a5d df3d 4559 47bf f53d 3a3f
00000330: 2f6f aabc 283e 813f 28ce 903d 1241 53be
00000340: 22c7 9dbe 1d86 713d 78be 5ebe 5ef0 3cbe
00000350: 2e56 013d a881 413d abb6 c63e 9b3e 6abe
00000360: 1ab8 513f 67d5 7d3f 65c3 1e3f ac49 cc3d
00000370: 8db3 673d 7035 143e b018 9fbe fea2 3f3e
00000380: 2ed4 cebd 23c0 d0be 0def 52be 9d6d fd3d
00000390: 2cf3 8b3e 3411 483f 63e2 c2bd 67a9 3f3f
000003a0: 0e70 083e 938c 403e 30ab 3a3d 8d7b b2bd
000003b0: b9e2 14be 89a0 103e 1450 81bd 4ad0 0fbf
000003c0: 9906 6c3c 3c90 f63f 93b4 6ebe 0caf 15be
000003d0: ac5c d7bd 2851 0d3d 1ee2 babe 7958 893f
000003e0: 04fb cebe 282e 52be b2cb 273e 7633 5abf
000003f0: 0f0b acbe 3572 303f efe3 ad3e a1e4 f7be
0.15358454 0.7617311 -0.32832333 0.26227134 0.020543585 0.13301167 -1.7412354 0.032918874
-0.18012623 -0.18955554 -0.33467537 -0.14781973 0.07910726 0.09878344 0.3416141 0.09726942
0.36344162 -1.6898525 0.32060483 -0.09103881 0.028780002 0.26745242 -0.41973272 -0.6723304
-0.63660663 0.27349755 -0.1599808 0.38243005 -0.056347057 0.008658979 -0.39241087 0.26818165
-3.6550956 0.36965957 0.20572484 -1.5346719 -0.103710115 -0.111533254 0.15860908 -0.21346387
-0.5116094 -0.253524 0.503749 0.28251508 0.066753455 -1.3795681 0.05222752 -0.33643055
-0.33142406 0.7649243 -0.33113337 0.0148931155 -0.395088 -0.09284915 0.31540254 0.39461938
0.37417907 -0.37478644 -0.74106145 -4.584676 0.13144006 0.13381605 -2.3764405 0.13562928
-0.64755565 -0.1225924 -0.001350037 -2.5651367 0.5866522 0.28753403 -0.22214258 0.16816741
0.17057268 0.30668435 -0.03888463 -0.04960456 0.16831763 0.46855935 -0.16552578 -0.22870144
-0.86412394 -0.18767677 0.7623272 0.13681978 0.0061766207 -0.22631215 0.4706965 0.13787086
-0.50963193 -2.5952682 0.07689911 -0.12475948 0.0664137 0.57854444 0.001602367 0.17087883
-0.21980682 0.6042067 -0.9166868 0.17913458 -1.0496677 -0.14697297 -0.21465394 -0.34208173
0.040280715 -0.09770969 0.44913167 0.38136888 -0.07310243 -0.75922203 0.5966372 0.2494228
0.30263832 0.02384915 -2.1541164 0.27319357 -0.08258473 1.0522918 0.12681745 -0.37913358
0.79468715 0.0059477375 0.053046275 -0.43120864 0.67692655 0.20469716 -0.46652547 0.21726629
-1.8479414 -0.16212985 -0.06124419 0.050394356 0.04392405 -0.045705535 -0.11783239 0.014192905
-0.010577307 0.10911844 0.20800403 -0.007975481 -0.022680702 -0.08307197 0.15594931 0.13645384
0.49257317 0.12570536 0.0066563175 0.32449582 -0.31522092 -0.42728025 -0.09361622 -0.10108498
-0.014534787 0.1473152 0.16039182 -0.3634976 -0.80104107 -1.7044464 0.057794463 -0.14806753
0.06374461 0.2978866 -0.61262655 -0.027800439 0.13826746 0.12723252 0.28707662 0.014788207
-0.24445532 -0.94618744 -0.1623744 -0.02685639 -0.06949809 0.2678424 0.18340275 -0.0658766
-0.16314848 -0.5919205 0.2553877 0.02788266 0.057136275 0.055730466 0.25641656 -1.7297571
0.08297719 0.17640673 -0.70861936 0.14394805 0.5213814 0.42311627 -0.26961762 -0.4052118
0.7453396 -0.064720616 -0.13418908 0.6278442 0.16649163 -0.12155342 0.11129919 -0.021377657
-0.17814355 0.10906489 -0.7787059 0.7275079 -0.02080497 1.0097094 0.07070571 -0.20630291
-0.3081599 0.05896579 -0.21752346 -0.18451068 0.031576328 0.04724279 0.3881124 -0.22875445
0.8192154 0.9915375 0.620169 0.09974989 0.056567717 0.1447351 -0.31073523 0.1871452
-0.10099064 -0.4077159 -0.20599003 0.12374423 0.27333963 0.7815125 -0.09515836 0.7486786
0.13323995 0.18803625 0.045573413 -0.08714972 -0.14539613 0.1412374 -0.06314102 -0.561772
0.01440587 1.9262767 -0.23311071 -0.14617556 -0.10515723 0.034501225 -0.3650064 1.0730125
-0.40425885 -0.2052542 0.16386297 -0.85234773 -0.33602187 0.68924266 0.33962962 -0.48416618

model.2.bias f4 [200]
00000000: 0627 ac3d 8761 39bf 0134 a7be 68b4 a4bf
00000010: a3a6 b3be bc67 d0be 2834 b43e 3cc8 c8be
00000020: 8ce1 253f a9f1 f23e 6f1d aabf 1a37 85bc
00000030: e011 b43e 586d 9d3e c1e0 913e 6647 4a3e
00000040: e4e0 84be 4235 7c3e 88dc 1ebd 2b31 373e
00000050: 27d3 9f3d 1c62 40bf 3558 b73e 333e df3c
00000060: f003 61be ec0f 44be 9470 49bf ecff 4ebf
00000070: 39f2 00bf 06c8 063f cf02 653e 284f 87bd
00000080: 069b e13e 0271 b83c e285 2c3e 898e 3e3f
00000090: 3183 b03e b7c7 10bf 540b 883f 7508 71be
000000a0: 4553 b63e 76d7 79bf 5ecc a8be 0239 0a3e
000000b0: 75f6 823e 1bce 44bf 7f38 7c3f 2ddb 1c3f
000000c0: 374a 83be 43aa 98be 33a7 afbf d955 6dbf
000000d0: 41cf d6bc 22f8 c6bc babf f1be ac9a 27bf
000000e0: 9096 03bf 23ff 363f 5bab 37bf 734a f1be
000000f0: 4a4f fa3d 8c6f 7fbe 4f4a 2a3f d81d ebbe
00000100: 4894 bf3e 858a 283e 80df 7fbe d926 64bc
00000110: 8428 afbe 5681 f0be 58e9 c13e 0c26 6b3e
00000120: 3a5a 673f 141e 633c f8d4 453f 2cb7 cc3d
00000130: 32fb f73e 1d95 3dbf 4722 10bd 3302 bcbd
00000140: 0f37 adbf 2d06 813e 81b6 20bf 9520 9dbf
00000150: 379d aabd 8b05 1abf 4b8d a6be 6f95 ff3e
00000160: fb58 103d d507 b63e 174a 2ebf 6df3 a6bf
00000170: bf89 ed3e ae98 93bf 24e7 7dbf 83e1 ca3e
00000180: 4a67 5f3f 1f2a 07be ddc9 64bf 0fdf 2e3c
00000190: 381b e03d 3c8e 65bd e7d8 9fbf f7ea 713e
000001a0: 9f58 40be ef8c b53d 702c 043f 38a9 9a3e
000001b0: 47b4 06be 26bd f63e 3848 dc3e d69a 643e
000001c0: 149a 3bbf bfda 35bf 971c 41bd e729 15bf
000001d0: c91f 00bd c562 1cbd 2ed0 abbd 63f9 fc3e
000001e0: 73c9 403f c52e 76bf 92de 943e 6590 bf3d
000001f0: fe86 353f 92fa a6bd e500 cabe 189b 4cbf
00000200: ac1a f53c 328a 033e d9be 883e e065 333e
00000210: a18a e63e 7331 28bf 1cac 763e d8e9 033f
00000220: afd6 a2bf 0cde 013f e160 95bf fe73 113d
00000230: 0fdc 373f 6bd5 b1be 89e7 913e 4eff f33d
00000240: fc6a f83d 2d8f 553f 593d a43e ce4a 373f
00000250: 8074 04bf 6eb0 70bf 4801 39be e892 0fbe
00000260: 30ea 7ebe e3e0 663e 796f fb3e b46f bb3e
00000270: aca4 ca3e 4f12 9bbd ee6e 193d 32ad a6bb
00000280: 9c3b 9abf 70bc e83e 1bf1 55bf 1191 68bd
00000290: 3b7c 07bf 569a 0c3e e3ef 653e aee3 023f
000002a0: cac7 92bf a7f7 0fbf aa94 b13e 5fea c9be
000002b0: 03de af3e e52b 69be 4437 0d3f 2bb2 e83d
000002c0: b4ca 703e d0fb a13e bfa1 84bd 9a01 8d3e
000002d0: e6b9 433e 36da 303f 3bf0 883e f6c1 d6bc
000002e0: 940e c83e b70a 25bf 4347 71be cd16 a03e
000002f0: 8c55 583d 41a6 ea3d 7347 c93e 0666 7fbf
00000300: 76e9 9cbe 47cc 93bf 91d3 aebe bde5 b73e
00000310: 42ad be3e 9eeb 343e 9aa6 143c 5eef a23d
0.08405881 -0.7241444 -0.32656863 -1.2867556 -0.3508807 -0.40704143 0.35196042 -0.39215267
0.6479728 0.47449997 -1.3290232 -0.016261626 0.35169888 0.30747485 0.28491786 0.19753799
-0.25952828 0.24629691 -0.038784534 0.1788985 0.07803946 -0.75149703 0.35809484 0.027251339
-0.21974158 -0.19146699 -0.78687406 -0.80859256 -0.503696 0.5264896 0.22364353 -0.06606895
0.44063586 0.022514824 0.16847947 0.7443624 0.3447509 -0.5655474 1.0628457 -0.23538382
0.35610405 -0.9759439 -0.3296842 0.13498309 0.25578657 -0.7687699 0.98523706 0.61271936
-0.2564256 -0.298174 -1.37229 -0.9270912 -0.026221873 -0.02428824 -0.47216588 -0.65470386
-0.51401615 0.7148306 -0.7174584 -0.47127113 0.122221544 -0.24944896 0.66519636 -0.45921206
0.37417817 0.16459091 -0.24987602 -0.013925278 -0.34210598 -0.46973675 0.3787334 0.22963732
0.9037205 0.013862152 0.7727809 0.09995875 0.48433834 -0.74055654 -0.03518894 -0.09180107
-1.3532428 0.25200024 -0.6277848 -1.2275568 -0.083307676 -0.6016471 -0.32529673 0.49918696
0.03524111 0.3555285 -0.680818 -1.3043038 0.46394154 -1.1530969 -0.9918082 0.39625177
0.8726698 -0.13199662 -0.8937052 0.0106732985 0.109426916 -0.05604385 -1.2488068 0.23624788
-0.18783806 0.088647716 0.51630306 0.3020723 -0.13154708 0.48191184 0.4302385 0.2232469
-0.7328198 -0.71036905 -0.047146406 -0.5826706 -0.031280313 -0.03818013 -0.083893165 0.49409017
0.7530739 -0.96165115 0.29076058 0.09353713 0.70909107 -0.08153261 -0.39453807 -0.79924154
0.029919945 0.12845686 0.26708105 0.17519331 0.4502764 -0.65700454 0.24089092 0.5152869
-1.2721766 0.5072944 -1.167019 0.03551101 0.7182016 -0.34733137 0.2849696 0.1191393
0.12129781 0.83421594 0.32078055 0.7159852 -0.51740265 -0.9401921 -0.18066895 -0.14020884
-0.24894023 0.22546725 0.49108484 0.3660866 0.3957876 -0.075718515 0.037459306 -0.0050865645
-1.2049441 0.45456266 -0.8357102 -0.05677897 -0.52923936 0.1373075 0.22454791 0.5112866
-1.1467221 -0.5623726 0.34683734 -0.39436623 0.3434907 -0.2277065 0.55162454 0.11362108
0.23514825 0.3163743 -0.06476163 0.27540284 0.19113883 0.69082963 0.2674578 -0.026215535
0.39073622 -0.64469475 -0.2356234 0.31267396 0.05281596 0.11457492 0.39312324 -0.9976505
-0.30646867 -1.1546715 -0.34145787 0.35917464 0.3724156 0.17668006 0.009072924 0.07955812

model.4.weight f4 [100, 200]
00000000: accf 49c0 4497 3fbf 4c2e 1fc0 4380 563c
00000010: 1661 3ac1 2212 dcc0 f325 4dc0 723b 7fbd
00000020: 4884 d03e 9db3 13bf 4368 8cbe fd22 89c0
00000030: aebb d5c0 dda2 a9be dbbe 7abd 9bcf e83e
00000040: 09ab f6bf 8bdb 3ac0 a453 c1bd b6a7 4fc0
00000050: cf54 b8c0 2656 d3c0 dddf acbf 05ae e1bf
00000060: 486c e8bf 494c 6ebf 3b97 a2bf 8ca1 9fc0
00000070: 01a3 afc0 c3da 9cc0 8a95 493f 3e3c 59be
00000080: 3993 a3bf bb9b 283d 35a7 6ac0 0f94 9b3f
00000090: 2d3b 02bf 100d e2c0 9e44 903e 1302 51c0
000000a0: af2e 22c0 c0d2 fdbd cba1 2bc0 4657 433e
000000b0: 7356 f7be e34e d7bf fba5 17bf caef 83bf
000000c0: c37a f6c0 11bd 37c1 9a90 0bbf e508 c8c0
000000d0: a691 28bd 6bc7 ea3c 904b c7bf 4d73 e1bf
000000e0: 0a70 8e3e 4bed 4a3e f6c7 b7bf 969d ffbf
000000f0: c18c 84be 7edd 62c1 d95c 8bbf d888 41c1
00000100: aed1 5ec0 be82 34c1 9a7d 47c0 21d6 f2bf
00000110: 702a afbe e70a 40be 538d 79c0 5d6e 2ec0
00000120: 180a 36be 55d9 8dbd 91e4 3cc1 246a 81c0
00000130: 2457 b6c0 bb53 0abf 090b 8cbe 73af 7abd
00000140: bdec b1bc 49d9 27c0 8860 33be 035d 18c0
00000150: 4815 f0c0 dfb6 9ebe ff0f 34bf cc06 06c0
00000160: 3405 3a3f 0ebb 55c0 9fd2 2ebf 1efd 55c0
00000170: 8571 1ebf 15e8 0ac0 ce03 a23d ea89 b5bf
00000180: d488 503e b7c9 f0c0 4513 97bf 85f6 bcbe
00000190: ddf3 ca3e 7df2 613d 9630 1dbe 9ed1 0ac0
000001a0: 6f45 e73e b582 96c0 0d4d 443f b71b be3f
000001b0: 1698 4cc1 b9c2 02c1 6591 e1bc 74e5 23bf
000001c0: 2870 9dbf 917e 09bf d813 e2c0 049d 21bd
000001d0: 7502 0c3f 7aec d3bc ef6b f9bb 3a8b 9fbe
000001e0: ec0e 0fbf 3ae1 cfbd 7825 e9bf cd15 22c0
000001f0: 9793 3bbd fa09 fdc0 e3fb 1ec1 e721 71c0
00000200: 8c66 99c0 be92 adc0 45ef 03bf 73c7 82c0
00000210: c659 c4be 705a b4bc 01cc e2c0 19d9 24bf
00000220: 5061 abbf 28ce 3ec0 a768 54be b0d2 00c1
00000230: 2792 c8c0 756a bbc0 d6d7 f8bf d85e c3bf
00000240: 1cb2 c1c0 a513 85c0 64a8 40bf 9232 0d3f
00000250: 06a4 a1c0 3ca6 59c0 dae6 c3be db25 8ac0
00000260: 238c 453f 520f 0dc1 7217 9cc0 eecf 85c0
00000270: 5409 073e 7fcf 9d3c af9b dbc0 24e6 8fbd
00000280: 98cf 4dc0 2fbd 8dbf f7d8 e8bb b5b6 8f3c
00000290: 12b2 85bd ea5b e1c0 0b5b 85c0 c18e 3fbf
000002a0: 6c8c bbc0 debd 29c0 f4e5 02c1 ccfa 3cc0
000002b0: f91b a6be 623c d3bc ee84 94be 3362 b9bf
000002c0: 06e3 dfc0 edf0 21c1 dde1 b4c0 557f a0be
000002d0: c60f 82c0 deed 5abf fe96 b2bf 4176 2dc0
000002e0: 82a7 ddbf 93c2 e0c0 d6a4 52be 29b1 22bd
000002f0: 2f9a 2fc0 5e8e 1e3e 1912 14bf 2cda 90be
00000300: 17bf f6c0 c165 64be 0b5b 91c0 9517 28bf
00000310: f1b8 82bf e601 a7be 6fb7 ebbc 08cb dbbf
00000320: 7193 90c0 4c2f c4be 79c3 a1bf 9e9e 9abd
00000330: c318 15c0 87f5 333e e957 13bf a9be 49bf
00000340: 970b 4e3f 7072 143d 7931 81bf efae 85bf
00000350: 5d5f bebf e142 513f a20f b0bf a26a d8c0
00000360: aa57 1540 0155 5cbf f60c 1ebe 6c53 9dc0
00000370: 27ab 0fc1 beb9 ca3e 9d64 f9c0 bd4c fabd
00000380: 317c aec0 1a3b 46bf 83d5 06c1 8f30 8fbf
00000390: d3e1 b1c0 0ffc e2be 9a65 99be ad55 2f3f
000003a0: b378 52bf f111 2cbd 278d 06c1 b0ae a4c0
000003b0: e3ce 53be 9431 1fc1 bb23 b8bf 11d3 273f
000003c0: 9ef2 7a3f 2db3 3dbe 34b5 d2bf 3683 cdbf
000003d0: 6689 e63e 3fb9 5ebf bcd0 663f c1d2 a5bf
000003e0: 8bb9 1fc0 1895 a5bf cbc7 35bf d4ac c2c0
000003f0: c7f0 6b3c f3a7 203c 2b5d febe 7cd0 88c1
-3.1533003 -0.7484019 -2.4872007 0.013092103 -11.648703 -6.8772135 -3.2054412 -0.06231255
0.40725923 -0.57695943 -0.27423295 -4.285521 -6.67916 -0.33132067 -0.06121717 0.4547089
-1.9270946 -2.9196498 -0.09439781 -3.2446113 -5.7603526 -6.604266 -1.3505818 -1.7631232
-1.8158045 -0.9308515 -1.2702402 -4.98847 -5.488648 -4.9017043 0.78743804 -0.21214387
-1.2779304 0.04116414 -3.6664555 1.2154559 -0.50871545 -7.0640945 0.2817735 -3.2657516
-2.5340993 -0.12393713 -2.68175 0.19076261 -0.48308143 -1.6820949 -0.5923764 -1.0307553
-7.7024856 -11.483659 -0.5451752 -6.2510858 -0.041154526 0.028659543 -1.5569935 -1.7613312
0.27819854 0.19817083 -1.4357898 -1.9969966 -0.25888637 -14.179075 -1.088771 -12.095909
-3.4815478 -11.2819195 -3.117041 -1.8971597 -0.34212065 -0.18754159 -3.8992507 -2.725486
-0.17777288 -0.069262184 -11.805802 -4.0442066 -5.6981373 -0.5403401 -0.2735217 -0.061202478
-0.02171933 -2.622637 -0.17517292 -2.380677 -7.502598 -0.30998895 -0.7033691 -2.0941648
0.7266419 -3.339542 -0.6829013 -3.343574 -0.6189197 -2.1704152 0.07910882 -1.4182713
0.20364696 -7.5246234 -1.1802756 -0.3690683 0.39639178 0.055162895 -0.15350565 -2.169044
0.4517016 -4.7034554 0.7668007 1.4852208 -12.78713 -8.17254 -0.02753515 -0.6402199
-1.2299852 -0.5370875 -7.0649223 -0.039456382 0.5469125 -0.025869597 -0.0076117436 -0.3116091
-0.55882144 -0.101503804 -1.821456 -2.5325806 -0.04579505 -7.907468 -9.936496 -3.7676942
-4.793768 -5.424163 -0.5153697 -4.086847 -0.38349742 -0.02201578 -7.087403 -0.64393765
-1.3389072 -2.9813328 -0.20743047 -8.051437 -6.267841 -5.8567452 -1.9440868 -1.5263319
-6.052992 -4.158648 -0.75256944 0.5515529 -5.0512724 -3.4007711 -0.38262063 -4.317121
0.77166957 -8.81624 -4.877862 -4.181632 0.13187152 0.01926398 -6.8627543 -0.07026318
-3.2157955 -1.1073359 -0.0071059423 0.017543176 -0.06528105 -7.04247 -4.1673636 -0.748272
-5.8608913 -2.6522136 -8.181141 -2.9528074 -0.32443216 -0.025785629 -0.29007667 -1.4483093
-6.996463 -10.12132 -5.652571 -0.31347147 -4.0644255 -0.85519207 -1.3952329 -2.7103426
-1.7316744 -7.0237517 -0.20570692 -0.039719734 -2.7437856 0.15483996 -0.57840115 -0.28291452
-7.7108264 -0.22304441 -4.5423636 -0.65660983 -1.021269 -0.32618636 -0.028773991 -1.7171335
-4.517998 -0.38317335 -1.2637779 -0.07549785 -2.3296363 0.1757413 -0.57556015 -0.7880655
0.80486435 0.03624195 -1.0093223 -1.044401 -1.4872853 0.81742674 -1.3754771 -6.7630167
2.3334756 -0.86067206 -0.15434632 -4.9164333 -8.979285 0.39594835 -7.793532 -0.12221668
-5.45266 -0.7743393 -8.427127 -1.1186694 -5.5588164 -0.4433293 -0.29960328 0.68490106
-0.8221542 -0.042009298 -8.409461 -5.146324 -0.2068439 -9.949604 -1.4385904 0.65556437
0.98026454 -0.18525381 -1.6461549 -1.6055667 0.45026702 -0.87001413 0.90162253 -1.2954942
-2.4956996 -1.2936125 -0.71007985 -6.083597 0.0144006675 0.009805667 -0.49680457 -17.101799

model.4.bias f4 [100]
00000000: 774a b23f 2bdb 0240 0f31 213f b8b0 bd3f
00000010: 3979 5dc0 2bc1 c43d 2a9e 833f 7a4a ce3d
00000020: b0db 60c0 ea5b 34bd 9d82 c63f b8b7 bd3e
00000030: 2a4b e93c a72c 64c0 3c24 063e 5735 0a3d
00000040: 9312 4c3f 2a38 343e d158 593f d6ba 773f
00000050: 17e0 953f 38cb 883f 2b80 803f 014a 853e
00000060: c1fe 933f 3d69 803f 04fb 433f b48f d33f
00000070: b5a5 d43f 5617 103f 40f9 ab3f 4dd2 203f
00000080: d948 0840 68cc 7d3f ece3 d93f fa53 723f
00000090: 826c 4e3f c4c2 fd3e 73b2 3b3f b4da 03be
000000a0: 8ba3 dd3e 2ddb 8e3e 8d57 7e3e 2c5c 983e
000000b0: 31eb 133e 2869 783d 45d4 203e dba3 f23e
000000c0: bf80 883e 3840 01bf ce3d 8ebf 5a33 6cbf
000000d0: a4f7 b4ba c42a f83d eb72 04be e625 c8bd
000000e0: a254 b13c 5527 d2bd 95d8 f83d d450 4a3e
000000f0: 60d5 f83d 50cd 4fbd ec23 26be 4565 433e
00000100: 744c a03e 7ae2 203e 4a77 633e d4f8 753c
00000110: 8575 183e 9166 56be 1ce0 ee3c d25c 50bd
00000120: 822f a3be 6079 51bf f6f7 16bf 42a8 83bd
00000130: 78b3 ea3c baed 3b3d 23c5 563e b59a dcbd
00000140: e81b adbe e8bc 1abf 8735 f43d e63f 933c
00000150: 540b 313f 21f7 ac3e 8588 c03e bb1e 553f
00000160: fdad 923d 0e8e 0340 58da 483f 0a00 9e3f
00000170: 04d8 d03f 6536 6c3f 61f2 783f 235c 3640
00000180: 2b0e 753f 145b 0f3f eee2 513e 9690 3c3f
1.3928975 2.044627 0.6296548 1.4819555 -3.4605238 0.09607156 1.0282643 0.10072799
-3.5134087 -0.04403297 1.550861 0.3705423 0.028478224 -3.5652254 0.1309976 0.033742275
0.7971584 0.1759955 0.8490115 0.96769464 1.1709012 1.0687017 1.0039114 0.26033023
1.156212 1.0032116 0.76554894 1.652823 1.661307 0.5628561 1.343544 0.62820894
2.1294463 0.99140024 1.7022681 0.9465939 0.8063432 0.49562657 0.73319167 -0.12876397
0.43288836 0.27901593 0.24838085 0.29757822 0.14445187 0.06064716 0.15705974 0.47390637
0.26660725 -0.50488615 -1.1112611 -0.92265856 -0.0013806713 0.12117532 -0.12934463 -0.097728536
0.021646801 -0.10261408 0.12150685 0.19757396 0.12150073 -0.05073291 -0.1622464 0.190816
0.3130833 0.15711394 0.22213474 0.0150129385 0.1488858 -0.20937563 0.029159598 -0.05086977
-0.31872183 -0.8182583 -0.5897211 -0.06428577 0.02865003 0.04588101 0.20973639 -0.107716955
-0.33810353 -0.604445 0.11924272 0.017974805 0.6915791 0.33782294 0.37604156 0.83250016
0.07162092 2.0555453 0.78458166 1.2343762 1.6315923 0.922705 0.9724484 2.8493736
0.95724744 0.5599835 0.20496723 0.7365812
